data/model.safetensors (safetensors, 174556 bytes, 5 tensors)

model.0.bias f4 [256]
0	0xbd9f06bb	-0.077649556
1	0x3d37f8a5	0.04491486
2	0x3d5fd29d	0.054644216
3	0xbe0e4655	-0.13894017
4	0xbd287066	-0.041122817
5	0xbd81126b	-0.06302341
6	0xbd5f4440	-0.054508448
7	0x3c83dc37	0.016096218
8	0x3dc9f063	0.09860303
9	0xbdef2c13	-0.11678328
10	0xbd17fe08	-0.037107497
11	0xbde5d5f5	-0.1122245
12	0x3db83103	0.08993723
13	0xbc8d4494	-0.017244615
14	0x3de0a32d	0.10968623
15	0x3e039874	0.12851125
16	0xbe03f755	-0.12887318
17	0x3d9717f5	0.07377616
18	0x3df93248	0.121677935
19	0xbd69e933	-0.05710716
20	0x3dc2810c	0.0949727
21	0xbde9738a	-0.113989905
22	0xbd1a2983	-0.037637245
23	0xbce7b7f9	-0.028285967
24	0xbd2cfb0f	-0.042231616
25	0x3d093f45	0.033507604
26	0x3cb29ced	0.021803344
27	0xbc8b9bac	-0.017042004
28	0x3d242e0f	0.040082987
29	0x3e1db2bc	0.15400213
30	0x3b88d77d	0.004176079
31	0x3dde31bb	0.10849329
32	0x3d6d1068	0.057876974
33	0x3e15baf2	0.14622095
34	0x3dd7743e	0.10520218
35	0xbdbf6274	-0.0934495
36	0xbe1d1c75	-0.15342887
37	0xbde43298	-0.111424625
38	0xbde44455	-0.11145846
39	0x3d97fc5b	0.0742118
40	0x3dd54b1d	0.10414717
41	0xbe171092	-0.14752415
42	0xbdb569a4	-0.0885804
43	0x3c27e3a6	0.010247147
44	0xbd5f3f6d	-0.054503847
45	0xbe1ae200	-0.15125275
46	0x3d1150b9	0.035477374
47	0xbd951fd1	-0.07281459
48	0xbe03f3b3	-0.12885933
49	0xbd8b0ee0	-0.067899466
50	0xbe128bb5	-0.14311107
51	0xbdbee93b	-0.09321829
52	0x3c8cd208	0.017189994
53	0x39b7d79b	0.0003506512
54	0xbcb4c946	-0.02206863
55	0xbdfdf686	-0.12400536
56	0xbe15cca9	-0.14628853
57	0x3c596185	0.013267879
58	0xbdbc5a60	-0.09196925
59	0x3caa28dc	0.020771436
60	0xbd05e055	-0.032684643
61	0xbd22869a	-0.039679147
62	0xbe1eed17	-0.1552013
63	0xbe07d2e8	-0.13264048
64	0xbc88f20e	-0.016716983
65	0xbc1d7fcc	-0.009612989
66	0xbd22ea1a	-0.039774038
67	0x3d31dce5	0.043423552
68	0x3dfda015	0.12384049
69	0xbc8172b3	-0.015801763
70	0x3d01e220	0.03170979
71	0xbd9932e0	-0.07480407
72	0xbc91679a	-0.017749596
73	0x3da600bd	0.081056096
74	0x3da9b77a	0.082869485
75	0x3d9ab6d6	0.075544044
76	0x3dcbdab7	0.09953826
77	0x3d6b2e14	0.05741699
78	0xbd5c6d72	-0.053815313
79	0x3cbdfe39	0.023192512
80	0xbd5420ab	-0.051788967
81	0x3c551cd7	0.013007364
82	0xbe1bbb76	-0.1520823
83	0xbe0224b9	-0.12709321
84	0xbda0ba21	-0.07848001
85	0x3d8f81db	0.0700719
86	0xbab16e18	-0.0013536839
87	0xbd4ed3ad	-0.05049484
88	0xbcdc0e4e	-0.02686229
89	0xbe16ef6f	-0.14739774
90	0xbbbd7fd9	-0.005783063
91	0x3d812fad	0.063079216
92	0xbd115a92	-0.035486765
93	0x3d20e614	0.03928192
94	0xbda352c7	-0.07974773
95	0xbe1165be	-0.14198968
96	0x3d719c34	0.058986858
97	0xbd122819	-0.03568277
98	0xbd02d5fd	-0.031942356
99	0xbdbc538d	-0.091956235
100	0xbc2fdc30	-0.010733649
101	0x3d99c81f	0.07508873
102	0xbdcba7ff	-0.09944152
103	0xbca57872	-0.020199034
104	0x3e0d83d7	0.13819824
105	0x3e1f3421	0.1554723
106	0x3cdc6c35	0.026907066
107	0x3dd61987	0.10454088
108	0x3ce13a5c	0.027493648
109	0xbd01c0db	-0.031678062
110	0x3cb9adbb	0.022665849
111	0x3d2589c1	0.040414575
112	0xbd4467ec	-0.04795067
113	0xbd63a2d1	-0.055575196
114	0xbd1ed2ee	-0.038775377
115	0x3d6aff31	0.057372276
116	0x3bc6f6c8	0.006071899
117	0xbdc2a0d0	-0.09503329
118	0xbc20818a	-0.0097965095
119	0xbc9fc292	-0.019501958
120	0xbda18d77	-0.078883104
121	0xbcdeca1c	-0.027195983
122	0xbd409613	-0.047018122
123	0x3bd341db	0.0064470596
124	0x3e04f45e	0.12983844
125	0x3e1293f4	0.14314252
126	0x3dba1aaf	0.09087121
127	0xbde7caa8	-0.113179505
128	0xb99ec6eb	-0.00030284314
129	0x3b098a33	0.0020986914
130	0x3e1ea2ec	0.15491837
131	0xbdc3fab4	-0.09569302
132	0xbd1eab77	-0.03873774
133	0x3dd680d6	0.10473792
134	0x3a9a0a2a	0.0011752297
135	0x3b8530f1	0.004064672
136	0x3e045fb5	0.12927134
137	0xbdd9a3d2	-0.10626949
138	0x3e08abf2	0.13346842
139	0xbd4c3d01	-0.049862865
140	0xbd3c6961	-0.045998935
141	0x3cd5ff49	0.026122706
142	0x3d9d04e1	0.07666946
143	0xbe0952ea	-0.13410535
144	0x3d866d7b	0.065638505
145	0xbcd022f4	-0.025407292
146	0xbdcede6c	-0.10101017
147	0xbe1ce6f4	-0.15322477
148	0xbe1528fa	-0.14566413
149	0x3da1ebaa	0.079062775
150	0xbd98117d	-0.074252106
151	0x3ddb2870	0.10701072
152	0x3dddb3c0	0.108253
153	0x3d7e94ec	0.06215374
154	0x3e080108	0.13281643
155	0xbdfa15b4	-0.12211171
156	0x3e22e847	0.1590892
157	0xbe062747	-0.1310092
158	0xbe052d51	-0.13005568
159	0xbd95f22a	-0.0732158
160	0x3ddf405b	0.10900947
161	0xbdf1aa2d	-0.118000366
162	0x3db40777	0.08790486
163	0xbd2ae101	-0.041718487
164	0xbd27aea1	-0.040938023
165	0x3e1aa41d	0.15101667
166	0xbce7db66	-0.02830286
167	0x3d4e6f67	0.05039921
168	0xbbbd282a	-0.00577261
169	0xbe0e065a	-0.1386961
170	0x3e140897	0.14456402
171	0xbdb64616	-0.089000866
172	0xbd160df9	-0.03663442
173	0x3dd3b334	0.10336915
174	0xbb740e2b	-0.003723989
175	0x3e11fd75	0.14256842
176	0x3dfe35b1	0.124125846
177	0x3df13232	0.11777152
178	0x3ac8e712	0.0015327653
179	0x3dfd43f2	0.12366475
180	0x3d50538f	0.050860938
181	0x3dfce076	0.123475
182	0xbd22a899	-0.03971157
183	0xbd8a4f82	-0.06753446
184	0x3c0cf4df	0.008603304
185	0x3dbfe281	0.09369374
186	0x3d47cfd1	0.048782174
187	0x3d966bed	0.07344804
188	0xbdafa27e	-0.08575915
189	0x3e0c7549	0.13716616
190	0xbdf28985	-0.11842636
191	0x3d9f769b	0.07786294
192	0xbe1c888b	-0.15286462
193	0xbd034c89	-0.03205541
194	0xbd010fbc	-0.031509146
195	0x3daf8113	0.08569541
196	0xbde6683f	-0.11250352
197	0x3d95a821	0.07307459
198	0x3c8c4eff	0.017127512
199	0x3d0150d4	0.031571224
200	0x3e1034fc	0.14082712
201	0xbd99aa61	-0.075032
202	0x3c95fbd5	0.01830856
203	0xbde808a9	-0.11329777
204	0xbe10896f	-0.14114927
205	0xbdc81422	-0.09769465
206	0x3decc06b	0.11560138
207	0x3d10c7ff	0.03534698
208	0x3e197e4a	0.14989582
209	0xbe029ad1	-0.1275437
210	0x3e0a86a4	0.13527924
211	0xbdb578dd	-0.088609435
212	0xbe0b19ad	-0.13584013
213	0x3e1cb347	0.15302764
214	0xbcab7ac9	-0.020932572
215	0xbd9b1c7c	-0.07573792
216	0x3d19f5d2	0.03758795
217	0x3da7549b	0.08170434
218	0x3e092c2f	0.13395761
219	0xbcd3f0d3	-0.02587167
220	0x3a196728	0.00058518583
221	0x3d4c3d28	0.04986301
222	0xbdc4f3df	-0.09616827
223	0x3de71faa	0.11285336
224	0x3e13ea87	0.14444934
225	0x3db5d73c	0.08878943
226	0x3d2faf06	0.042891525
227	0x3d9d0ea0	0.07668805
228	0xbdf8c465	-0.12146834
229	0xbdc9bcfc	-0.09850499
230	0xbd8ab888	-0.06773478
231	0x3d783449	0.060596738
232	0x3e1ccc96	0.15312418
233	0x3c0ba3e3	0.00852296
234	0x3dd43ce7	0.10363179
235	0xbc21d330	-0.009877011
236	0x3e0ad173	0.13556461
237	0xbdab1ef8	-0.08355516
238	0xbe070d34	-0.1318863
239	0x3ddb197b	0.106982194
240	0xbc452277	-0.012032143
241	0xbcbef28e	-0.023309018
242	0x3d56e460	0.05246389
243	0x3d267975	0.040643174
244	0x3ddb3e75	0.10705272
245	0x3e122453	0.14271669
246	0xbe0438e5	-0.12912329
247	0x3d575714	0.05257328
248	0xbd1a8ddc	-0.037732944
249	0xbd50837c	-0.050906643
250	0xbb94ea95	-0.004544566
251	0xbe11eaf1	-0.1424978
252	0xbd89a2f1	-0.06720532
253	0x3e215da2	0.15758374
254	0xbdf3b8c2	-0.11900474
255	0x3dc77db8	0.09740776

model.0.weight f4 [256, 40]
0	0x3c2e2a1f	0.01063016
1	0xbd91de50	-0.07122481
2	0x3caa6ea2	0.020804707
3	0xbdfad0f5	-0.12246887
4	0x3dfa5151	0.12222541
5	0xbdbddfe1	-0.09271217
6	0x3e138c9b	0.14409105
7	0xbdc480a2	-0.09594847
8	0x3cf33963	0.02969045
9	0x3e1711f6	0.14752945
10	0x3e156a31	0.1459129
11	0xbc39456e	-0.011308057
12	0xbd94037e	-0.072272286
13	0xbd100301	-0.035159115
14	0xbdd34475	-0.103157915
15	0x3d1e5d59	0.038663242
16	0x3df6d766	0.12052803
17	0xbe1643e4	-0.14674336
18	0x3cc58271	0.02411005
19	0x3dd75c0d	0.10515604
20	0x3e1efff5	0.15527327
21	0x3d479705	0.048728008
22	0xbe01e010	-0.1268313
23	0x3cdd1f81	0.026992561
24	0xbcde628e	-0.027146604
25	0x3e1b3faa	0.15161005
26	0x3d4ba87f	0.049721237
27	0xbc618a45	-0.013765876
28	0xbd28efdc	-0.041244373
29	0xbd7a618b	-0.06112818
30	0x3b6fe82c	0.003660689
31	0x3dfcf4f9	0.12351412
32	0xbdfd20f6	-0.123598024
33	0xbe065c0c	-0.1312105
34	0x3e001247	0.12506972
35	0x3d1d576b	0.038413446
36	0x3e198304	0.14991385
37	0x3d3efcb4	0.046627715
38	0x3cb44a0e	0.022007968
39	0x3e1c58c1	0.15268232
40	0x3e1c18c1	0.15243818
41	0x3e187436	0.14888081
42	0xbdc61cd6	-0.09673469
43	0x3dd23d93	0.102656506
44	0x3df439e3	0.119251035
45	0xbc5bb886	-0.013410693
46	0x3dc33939	0.09532399
47	0xbdd99da6	-0.10625772
48	0x3db118fa	0.08647342
49	0x3ddac660	0.10682368
50	0xbd8f2326	-0.06989126
51	0xbde85785	-0.11344818
52	0x3ddc0c0b	0.107444845
53	0xbe106918	-0.1410259
54	0xbc54b448	-0.0129824355
55	0x3e1d2f41	0.15350057
56	0xbda81db3	-0.0820879
57	0x3dbf768a	0.093487814
58	0x3c9aef5b	0.018912962
59	0xbcd7b9d7	-0.026333733
60	0x3e085494	0.13313514
61	0x3dfb7487	0.12278085
62	0xbc5f8f29	-0.013644972
63	0x3d214ec7	0.03938177
64	0x3ded48f2	0.11586179
65	0xbdfa08f0	-0.12208736
66	0x3d31631d	0.043307412
67	0x3db2f875	0.08738796
68	0x3df352b1	0.118810065
69	0x3d82881d	0.06373618
70	0xbd6aee0f	-0.057355937
71	0xbb36e7c0	-0.002790913
72	0xbbcd6da8	-0.0062691756
73	0xbe0e2d5a	-0.13884488
74	0x3d69007e	0.056885235
75	0xbdce8e0b	-0.10085686
76	0x3d485e5f	0.048918124
77	0xbd208fed	-0.03919976
78	0xbd8b7b05	-0.068105735
79	0xbd9c8434	-0.07642403
80	0x3d5ed39c	0.054401025
81	0xbd4295fe	-0.047506325
82	0xbde2bce9	-0.11071188
83	0x3daf82df	0.085698836
84	0x3dfac71d	0.12245009
85	0xbc395ade	-0.011313168
86	0x3d9fb809	0.07798774
87	0x3da1bb17	0.07897013
88	0x3e18081c	0.14846843
89	0xbdef9567	-0.11698418
90	0x3dd35d42	0.10320522
91	0x3d0dc93e	0.034615748
92	0x3e1af367	0.15131913
93	0x3b05c645	0.0020412367
94	0x3da82097	0.08209341
95	0x3ddb4182	0.10705854
96	0x3c0b7e11	0.008513943
97	0x3e087dd5	0.13329251
98	0x3a1796c3	0.0005782658
99	0x3c5f591e	0.013632087
100	0x3e1f6fce	0.15569994
101	0x3e150249	0.14551653
102	0xbe1980ab	-0.14990489
103	0x3e0ad021	0.13555957
104	0x3d52706a	0.051376738
105	0xbd70f11b	-0.058823686
106	0x3dee8179	0.11645789
107	0xbdc5ef63	-0.096648
108	0x3dd14c02	0.102195755
109	0x3d82e0be	0.063905224
110	0x3d773d05	0.060360927
111	0x3c9fa157	0.019486113
112	0xbcd43520	-0.025904238
113	0xbdca3600	-0.09873581
114	0xbc051aea	-0.008124093
115	0xbe15ed22	-0.1464124
116	0x3de08cf1	0.109643824
117	0x3da59b5d	0.08086274
118	0xbe1161d7	-0.14197479
119	0x3dd9d683	0.10636618
120	0x3cfa6232	0.030564401
121	0x3d175f4e	0.036956124
122	0x3d33e45e	0.04391896
123	0x3de49085	0.111603774
124	0x3c624a58	0.01381167
125	0x3dc4f80f	0.09617626
126	0xbd7b6e41	-0.061384443
127	0x3ddf8e30	0.10915792
128	0xbe02e2c4	-0.12781817
129	0xbd97f682	-0.074200645
130	0xbdac74fa	-0.08420749
131	0xbd89acec	-0.06722435
132	0x3d9cbb8a	0.07652958
133	0x3d584c0b	0.052806895
134	0x3d4abf22	0.049498685
135	0x3c93408a	0.01797511
136	0xbdc44828	-0.09584075
137	0xbe19ce22	-0.1502004
138	0xbcccf342	-0.025018338
139	0xbd91c8d0	-0.0711838
140	0x3dd8a8bd	0.10579059
141	0x3d2d081e	0.04224407
142	0x3de71bdd	0.112846114
143	0xbe153c84	-0.14573866
144	0x3e045f3d	0.12926956
145	0x3d308d35	0.043103416
146	0xbd8315d4	-0.06400648
147	0xbdc4d57c	-0.096110314
148	0x3df5bcc8	0.11998898
149	0x3bdac552	0.0066763544
150	0x3e1366cf	0.14394687
151	0xbdb2a66f	-0.08723151
152	0xbdd05ead	-0.10174308
153	0xbdbf2b59	-0.0933444
154	0x3cdde096	0.02708463
155	0xbd232002	-0.039825447
156	0x3e1c5c9d	0.15269704
157	0x3ce3d708	0.027812496
158	0x3da65e8f	0.08123504
159	0xbc45008d	-0.012024057
160	0xbbfeacfd	-0.0077720867
161	0xbd7c8b26	-0.06165614
162	0xbdba7d3f	-0.0910592
163	0xbcf9e115	-0.030502835
164	0xbdb4919b	-0.088168345
165	0x3e1ac402	0.15113834
166	0x3d92e79e	0.07173084
167	0x3cb53933	0.022122001
168	0xbcd9167a	-0.026499975
169	0x3c94a9f4	0.018147446
170	0xbd6c919f	-0.057756063
171	0xbe156b31	-0.14591672
172	0x3d579eea	0.052641787
173	0x3d9c4f8b	0.07632359
174	0x3df03314	0.117284924
175	0x3d273b04	0.040827766
176	0x3dc61814	0.09672561
177	0x3cd8eddd	0.02648061
178	0x3df7bcb8	0.12096542
179	0x3dfe02be	0.12402867
180	0x3d344af6	0.0440168
181	0x3e072d01	0.13200761
182	0x3d8f9d92	0.07012476
183	0xbd12db6d	-0.035853792
184	0x3cef3926	0.029202055
185	0x3d6883af	0.05676621
186	0x3dc0d85e	0.09416269
187	0x3db3593a	0.08757253
188	0xbd88edb7	-0.066859655
189	0xbdc9401a	-0.098266795
190	0xbd8ad580	-0.06779003
191	0x3dc28f3b	0.09499975
192	0x3e124bca	0.14286724
193	0xbdf89f59	-0.12139768
194	0x3cc6e7bc	0.024280421
195	0xbd0f90c1	-0.035050157
196	0xbd913c79	-0.07091612
197	0xbded77dc	-0.11595127
198	0xbe1259b9	-0.14292039
199	0xbcf1e747	-0.029529227
200	0x3e199e93	0.15001898
201	0x3dd2ede1	0.10299278
202	0xbd108a9a	-0.03528843
203	0xbd95f615	-0.07322327
204	0xbdfd4d45	-0.123682536
205	0xbde274dc	-0.110574454
206	0xbdbb769d	-0.09153483
207	0xbd9664cb	-0.073434435
208	0x3d7bc9b1	0.061471645
209	0xbd55d626	-0.05220618
210	0xbd5508d1	-0.05201036
211	0x3d81e1f3	0.063419245
212	0xbd8e9b60	-0.06963229
213	0x3d408ab9	0.047007296
214	0x3e048236	0.12940297
215	0xbdbb8d93	-0.091578625
216	0xbd4d1a45	-0.05007388
217	0xbd8ce08d	-0.06878767
218	0x3e1adf20	0.15124178
219	0x3d62d8c7	0.055382516
220	0xbd55a33f	-0.052157637
221	0xbdaec0ce	-0.08532868
222	0x3db148a4	0.08656433
223	0x3d2cbd91	0.042172972
224	0x3dc3f41d	0.09568045
225	0xbc62806b	-0.013824563
226	0xbdf670f4	-0.12033263
227	0x3a9c7cb3	0.0011939019
228	0xbda3a9a7	-0.07991343
229	0x3e1ea33c	0.15491956
230	0xbdaba489	-0.08380992
231	0x3e10093b	0.14066021
232	0x3dcd5f87	0.10027986
233	0xbdf8851d	-0.12134764
234	0x3df77da4	0.12084511
235	0x3de45450	0.11148894
236	0x3e0724f0	0.13197684
237	0x3cb0dd65	0.021589944
238	0x3d3ef2ee	0.046618395
239	0xbc18633e	-0.009301005
240	0x3cfec1d8	0.031098291
241	0xbe0deccd	-0.13859864
242	0x3d2916aa	0.04128138
243	0xbe045ade	-0.12925288
244	0x3d92bb05	0.071645774
245	0x3e06a398	0.13148344
246	0xbe07e8f3	-0.13272457
247	0x3de6a47c	0.11261842
248	0x3d0d0381	0.03442717
249	0x3d1f3bea	0.038875498
250	0xbb7e18eb	-0.0038772176
251	0x3da6c23f	0.08142518
252	0xbd0f4229	-0.034975205
253	0xbd7aa937	-0.061196532
254	0xbdab6a1a	-0.08369847
255	0xbd40ad5e	-0.047040336

model.1.bias f4 [128]
0	0xbcde7afe	-0.027158257
1	0x3d671896	0.05641993
2	0x3d63fa29	0.055658493
3	0xbd75a43d	-0.059971083
4	0xbb84878a	-0.004044478
5	0xbcd42d76	-0.025900584
6	0x3d6b2c62	0.057415374
7	0x3d0c582c	0.034263775
8	0x3d4cb49a	0.049976923
9	0xbd64768a	-0.05577711
10	0x3c995aaf	0.01872
11	0x3d2ab896	0.04167994
12	0xbca490b7	-0.020088537
13	0xbc917584	-0.017756231
14	0x3d07d859	0.03316531
15	0x3d4b1fc7	0.049590852
16	0xbd1b2e3c	-0.03788589
17	0xbd4af767	-0.049552348
18	0x3d6e51d4	0.058183506
19	0xbc4b525a	-0.012409771
20	0x3c031a81	0.0080019245
21	0xbce9fff2	-0.028564427
22	0xbcc4d1d3	-0.024025833
23	0x3cfc8bd5	0.030828396
24	0x3cd07d8a	0.025450487
25	0xbcdc8720	-0.026919901
26	0xbd362ebc	-0.044478163
27	0xbd4e4c61	-0.05036581
28	0xbd685e45	-0.056730527
29	0xbc653545	-0.013989751
30	0x3cffcd4a	0.03122582
31	0xbc35fc38	-0.011107497
32	0xbc9b1a09	-0.018933313
33	0xbd2bf444	-0.041980997
34	0x3d12f6fe	0.03588008
35	0x3d743719	0.059622858
36	0x3d464006	0.0484009
37	0x3d0a162b	0.033712547
38	0xbd5399cc	-0.051660344
39	0x3d1559bb	0.036462527
40	0xbd54ceb7	-0.05195495
41	0xbbb3cdfe	-0.0054872027
42	0xbd22d488	-0.039753467
43	0x3c883500	0.016626835
44	0xbbbba148	-0.0057260133
45	0xbc894a2e	-0.016759004
46	0x3cc8d08e	0.02451351
47	0x3cc49081	0.023994686
48	0x3a6d36e5	0.00090490124
49	0x3d5323ec	0.05154793
50	0x3b5b9dae	0.0033510732
51	0x3d61f2bb	0.055163126
52	0x3d606af8	0.054789513
53	0x3ca7cdd3	0.020483887
54	0x3ca3636b	0.019944867
55	0x3d4a7b05	0.049433727
56	0xbb7119dd	-0.0036789097
57	0xbd619967	-0.055077937
58	0x3d46b34d	0.04851084
59	0xbd76d185	-0.060258407
60	0x3aec20d6	0.0018015157
61	0x3ce88d16	0.028387588
62	0xbd03c7f9	-0.03217313
63	0x3ccb0395	0.024781981
64	0xbc334b99	-0.010943317
65	0x3d6de0d6	0.05807575
66	0xbb2d9cb0	-0.0026491098
67	0xbd8099fa	-0.06279369
68	0xbd45aa3c	-0.04825805
69	0x3cd1c6c0	0.025607467
70	0x3d455393	0.048175406
71	0xbd419219	-0.04725847
72	0xbbc78964	-0.0060893763
73	0x3b4146f6	0.002949176
74	0xbd45cb1a	-0.048289396
75	0xbd25bfd3	-0.04046614
76	0x3c77484d	0.015092921
77	0xbd2d0f68	-0.04225102
78	0xbcf3f539	-0.029780017
79	0xbd361783	-0.044456016
80	0x3ca3353b	0.019922843
81	0xbd4d1c50	-0.05007583
82	0xbd68b954	-0.056817368
83	0xbcb990d2	-0.022652064
84	0x3c828c9e	0.015936192
85	0x3d45d26a	0.04829637
86	0xbce9b42a	-0.028528292
87	0x3cbbcced	0.022924865
88	0xbd07febe	-0.033201925
89	0xbd4478cd	-0.047966767
90	0xbc112418	-0.008858703
91	0xbd8035b2	-0.062602416
92	0xba79944a	-0.0009520693
93	0x3d598707	0.053107288
94	0x3c664ce2	0.014056416
95	0x3cb152b2	0.021645878
96	0x3abf4c2e	0.0014594847
97	0x3d13d557	0.03609213
98	0xbd3e3631	-0.0464384
99	0x3d82b2b6	0.06381743
100	0x3d6e4d15	0.05817898
101	0x3bec3c72	0.007209354
102	0x3be04b04	0.00684488
103	0x3a91e014	0.0011129403
104	0x3c607a79	0.013701075
105	0xbd1d1068	-0.038345724
106	0x3d65b929	0.056084786
107	0xbd7884df	-0.06067359
108	0xbcbe2734	-0.023212053
109	0xbd41e6b8	-0.04733917
110	0x3d31d26e	0.043413572
111	0x3d5b39a6	0.053521775
112	0xbcccbe5f	-0.02499312
113	0xbcfb6829	-0.030689316
114	0xbca597a9	-0.020213919
115	0xbd4f5186	-0.050614856
116	0xbd7170c7	-0.058945443
117	0xbcd4eee4	-0.025992818
118	0xbc8eec5d	-0.017446691
119	0xbd11a243	-0.035555135
120	0x3c658b98	0.0140103325
121	0x3d25c03e	0.04046654
122	0x3bc1ec73	0.0059180795
123	0xbce27378	-0.02764295
124	0x3d6eec13	0.058330607
125	0x3ca21334	0.019784547
126	0x3b98343c	0.0046448987
127	0x3d142d84	0.03617622

model.1.weight f4 [128, 256]
0	0x3d4cc447	0.049991872
1	0x3d4fa71f	0.05069649
2	0xbd6b7629	-0.057485733
3	0xbd1455be	-0.036214583
4	0xbcbadd1e	-0.022810515
5	0xbd5c454d	-0.053777028
6	0xbd38c13b	-0.045106154
7	0x3bb0405f	0.0053787674
8	0xbc5dde63	-0.013541791
9	0xbc21171b	-0.009832169
10	0xbd1530cd	-0.036423493
11	0xbc337a54	-0.010954458
12	0x3d634a38	0.055490702
13	0x3d7e31b5	0.062059123
14	0xbd07601a	-0.033050634
15	0x3c320298	0.010864876
16	0xbd6e6bde	-0.05820834
17	0xbc52ddb6	-0.012870243
18	0x3d608891	0.05481774
19	0xbbe5a47b	-0.007008133
20	0x3cc34795	0.023837844
21	0x3c81d299	0.015847491
22	0xbad740a4	-0.0016422463
23	0x3c0621da	0.008186782
24	0xbbe2e77f	-0.006924569
25	0x3ca5b7d8	0.020229265
26	0xbd45a5ec	-0.04825394
27	0xbcb6bdd3	-0.022307312
28	0x3c976d71	0.018484803
29	0x3d38518d	0.044999648
30	0xbcf11e75	-0.029433468
31	0x3d20e698	0.03928241
32	0xbc943d19	-0.01809554
33	0xbd2665f4	-0.040624574
34	0x3d2509ac	0.040292427
35	0xbcb1a5d0	-0.02168551
36	0xbd1742fd	-0.03692912
37	0x3d4eb0d1	0.050461594
38	0xbcfd85b9	-0.030947553
39	0xbd81020d	-0.06299219
40	0xbc87327f	-0.01650357
41	0xbd0a5773	-0.033774804
42	0xbbaa3b5d	-0.005195065
43	0x3d547500	0.051869392
44	0xbd634670	-0.055487096
45	0xbd3dfa43	-0.046381246
46	0x3cb9a5c7	0.022662057
47	0xbd57f3a2	-0.05272258
48	0x3d55b317	0.052172747
49	0x3d35251d	0.044224847
50	0x3d7024c2	0.058628805
51	0x3bf77ae8	0.0075524934
52	0xbd6a78df	-0.057244178
53	0x3c95ed21	0.018301548
54	0x3c6df950	0.014524773
55	0x3a469c03	0.0007576348
56	0xbcc3597e	-0.023846384
57	0x3d74095b	0.059579235
58	0xbd82c5b2	-0.06385364
59	0x3d11e2fd	0.035616864
60	0x3d6af88f	0.05736595
61	0xbd79f5c7	-0.061025407
62	0x3cc5e63a	0.024157632
63	0x3d628908	0.055306464
64	0xbc81e7d4	-0.015857615
65	0x3d16cf7f	0.036818977
66	0xbc72ffad	-0.014831466
67	0xbd3bd9b1	-0.045861904
68	0xbccce2e2	-0.02501053
69	0xbd48721b	-0.048936944
70	0x3cd74688	0.02627875
71	0xbc2ccf35	-0.010547449
72	0x3d0b618a	0.034028567
73	0x3d47749f	0.048695203
74	0x3d07b871	0.03313488
75	0xbcc29b5d	-0.023755724
76	0xbd27da61	-0.040979747
77	0x3d2652d4	0.040606335
78	0x3d0cf722	0.03441537
79	0xbd3ba19f	-0.04580843
80	0xbcf8cc3c	-0.030370824
81	0x3d39e038	0.045379847
82	0xbb738094	-0.0037155496
83	0x3d219424	0.03944792
84	0x3cc58676	0.024111968
85	0x3c089ad6	0.008337697
86	0x3cbbcb09	0.022923963
87	0xbca19d82	-0.019728426
88	0xb972f85f	-0.00023171444
89	0x3c24e149	0.010063478
90	0xbd5d72db	-0.054064613
91	0xbd6b1d3f	-0.057400938
92	0x3d2fb274	0.042894796
93	0x3bd9195d	0.006625338
94	0xba313f60	-0.0006761458
95	0x3d5ac4bc	0.053410277
96	0x3b20eb30	0.0024554245
97	0xbd1f4181	-0.03888083
98	0x3c9176d5	0.017756859
99	0x3d71831c	0.058962926
100	0x3c90b364	0.017663665
101	0xbcee6853	-0.02910248
102	0x3c4dbdbe	0.012557445
103	0x3d132024	0.035919324
104	0xbc8ee9f2	-0.017445538
105	0xbd022550	-0.031773865
106	0x3d4985b9	0.049199793
107	0xbd794e05	-0.06086542
108	0x3c344353	0.0110023795
109	0xbd76f399	-0.060290907
110	0xbb9ce1c5	-0.004787656
111	0xbd200892	-0.039070673
112	0x3cf0c7db	0.029392174
113	0x3d677aed	0.056513716
114	0x3c803ca8	0.015653923
115	0x3d0beef3	0.034163427
116	0xbcc8e38d	-0.024522567
117	0x3d55bb7d	0.052180756
118	0x3d2d16e5	0.042258162
119	0x3ca96bc5	0.020681271
120	0xbc66f154	-0.014095623
121	0x3b8706a7	0.004120666
122	0xbcf2467f	-0.02957463
123	0xbd57fafe	-0.0527296
124	0x3c5ce10f	0.0134813925
125	0xbc7dc1b3	-0.015488076
126	0x3ce5c8d2	0.02804986
127	0x3d623e38	0.055235118
128	0xbbdf1f03	-0.006809117
129	0xbd351dae	-0.044217758
130	0x3d673180	0.05644369
131	0xbcb223c4	-0.02174557
132	0xbd6a769b	-0.057242017
133	0xbd2155fd	-0.039388645
134	0xbbc59eaa	-0.006030877
135	0xbd5bb37d	-0.05363797
136	0x3d3d3f83	0.046203148
137	0x3ce47c85	0.027891407
138	0x3c927f4c	0.017882966
139	0xbd2efef4	-0.04272361
140	0x3cf7794a	0.030209202
141	0x3cbec9dc	0.023289613
142	0xbbea5b15	-0.007151971
143	0xbd487a79	-0.048944924
144	0xbd5e2e87	-0.05424359
145	0xbb8e6673	-0.004345709
146	0x3c54f30a	0.012997398
147	0xbd6e8640	-0.0582335
148	0xbccabd81	-0.024748566
149	0x3d605420	0.054767728
150	0xbd6b331d	-0.057421792
151	0x3cff0388	0.031129614
152	0x3d000609	0.031255756
153	0x3d0f3e72	0.034971662
154	0xbd195261	-0.03743208
155	0x3d084d7c	0.03327702
156	0x3d0bb91a	0.034112073
157	0xbc970c30	-0.018438429
158	0xbc9a501d	-0.01883703
159	0x3bdfeb20	0.006833449
160	0xbc4cfba0	-0.012511164
161	0xbd21507e	-0.039383404
162	0x3b5d0db2	0.0033730087
163	0x3cc07cfc	0.023497097
164	0x3ce7b8bd	0.028286332
165	0xbc335b2b	-0.010947029
166	0x3d02c5ae	0.031926803
167	0x3d660383	0.056155693
168	0x3a5fd7f0	0.0008538952
169	0x3baa62ae	0.005199752
170	0xbd0e530d	-0.034747172
171	0x3d423f88	0.04742387
172	0xbc2cb6eb	-0.010541658
173	0x3c9264dc	0.01787036
174	0x3d21a01a	0.039459325
175	0xbcd9457b	-0.026522389
176	0xbd09baab	-0.033625286
177	0xbd7f0a93	-0.062265944
178	0x3d5eff3e	0.054442637
179	0x3d0c24e4	0.03421487
180	0x3d582fee	0.052780084
181	0xbcf9ea6c	-0.030507289
182	0xbd04f12b	-0.03245656
183	0x3c114c52	0.008868294
184	0x3cc672cb	0.02422466
185	0x3cb8dc43	0.022565966
186	0x3cdad019	0.026710557
187	0x3b39cefe	0.0028352137
188	0xbc2024ef	-0.009774431
189	0xbd0c50ed	-0.034256864
190	0x3d27596a	0.040856756
191	0x3d1067c2	0.0352552
192	0x3d04e48b	0.032444518
193	0x3c522b2a	0.012827674
194	0xbd17b352	-0.037036248
195	0xbcb5a291	-0.022172244
196	0x3d543ebe	0.051817648
197	0x3ce6082f	0.028080074
198	0x3c0751ae	0.00825922
199	0x3d37a027	0.044830468
200	0xbcda5aed	-0.026654685
201	0x3ab776d3	0.0013997204
202	0xbcdc2580	-0.02687335
203	0xbc9e1ae1	-0.019299926
204	0xbd6e0289	-0.058107886
205	0x3c60b33c	0.013714608
206	0xbc252dd8	-0.010081731
207	0xbd0102a1	-0.031496648
208	0x3a05f616	0.0005110217
209	0x3cca08b0	0.024662346
210	0xbd17db3c	-0.037074313
211	0x3d312a58	0.043253273
212	0xbd60517a	-0.054765202
213	0x3b937b2c	0.004500767
214	0x3d746c72	0.059673734
215	0x3d3d8a4d	0.046274472
216	0xbd3da1cc	-0.04629688
217	0x3c702e5d	0.014659491
218	0xbd07574f	-0.03304225
219	0x3d5a636b	0.05331747
220	0x3c8ff5c7	0.01757325
221	0x3d6eb27f	0.058275696
222	0x3d05b687	0.032644775
223	0xbd19a3ab	-0.0375096
224	0xbbe387db	-0.0069436855
225	0xbd2f7900	-0.042840004
226	0x3cc1935d	0.023629839
227	0x3d6afb4e	0.05736857
228	0x3c99b03c	0.018760793
229	0xbc1a8a9b	-0.00943246
230	0x3d7ddcfa	0.061978318
231	0x3b72bec1	0.0037039968
232	0xbd2057ea	-0.03914634
233	0xbc442b87	-0.011973268
234	0xbd5db450	-0.054127038
235	0xbd5effe7	-0.054443266
236	0x3d28b4e9	0.041188154
237	0x3ca8e955	0.020619074
238	0xbb928ad9	-0.0044721183
239	0xbbd5c57c	-0.006523786
240	0x3c42f36b	0.011898856
241	0x3d75b297	0.05998477
242	0xbcc2e5a7	-0.023791147
243	0xbcb11cc1	-0.021620156
244	0x3d1f5740	0.038901567
245	0x3c5a8611	0.013337628
246	0xbd830402	-0.06397249
247	0xbb02f892	-0.0019984585
248	0xbd062b22	-0.03275598
249	0xbd796271	-0.060884897
250	0xbd1c954a	-0.03822831
251	0x3c4e90bc	0.01260775
252	0x3c81e653	0.015856897
253	0xbd5f11f9	-0.0544605
254	0x3ce0e4a4	0.027452774
255	0xbcef077d	-0.029178375

model.3.weight f4 [1, 128]
0	0x3d4a381b	0.049369913
1	0xbcdf709c	-0.027275376
2	0x3d6ffb3c	0.058589205
3	0x3c304f8f	0.010761156
4	0x3b4de965	0.0031419632
5	0x3cb32fed	0.021873439
6	0xbd1f30ca	-0.03886489
7	0x3a2eaab5	0.00066630106
8	0x3d001c79	0.031277154
9	0x3ce17758	0.027522728
10	0xbcf34424	-0.029695578
11	0xbcd41f80	-0.025893927
12	0x3d9a8cbf	0.075463764
13	0xbcae772c	-0.02129706
14	0x3da82436	0.08210032
15	0x3c24ddbe	0.010062633
16	0xbd5c34b3	-0.053761195
17	0x3ba3fb00	0.0050042868
18	0xbd18511f	-0.037186738
19	0xbd249568	-0.040181547
20	0x3d9ed700	0.07755852
21	0xbd8228c0	-0.06355429
22	0x3d2aa8c7	0.041664865
23	0x3d50679c	0.05088006
24	0x3ca628fe	0.020283218
25	0xbcc11915	-0.02357153
26	0xbccc7153	-0.024956381
27	0x3d629777	0.05532023
28	0xbb80a142	-0.0039254734
29	0x3d935aee	0.07195078
30	0x3d821679	0.063519426
31	0x3da8713b	0.08224722
32	0x3c33a2f3	0.010964143
33	0x3da1c1ee	0.07898317
34	0xbc81dcb2	-0.015852306
35	0xbd39dbae	-0.04537552
36	0x3b1ffde6	0.002441281
37	0xbc711f30	-0.014716908
38	0x3d36264b	0.044470113
39	0x3d84223f	0.064518444
40	0xbda66180	-0.081240654
41	0xbd181ec5	-0.03713872
42	0x3c640096	0.013916155
43	0x3cc58e52	0.024115715
44	0xbcc0d6a6	-0.023539852
45	0x3c992a5d	0.018696958
46	0x3bbb5e17	0.0057180035
47	0xbda31095	-0.07962147
48	0x3d940886	0.07228188
49	0xbd81f583	-0.06345656
50	0xbad4127d	-0.0016179826
51	0x3b3d64cd	0.0028899193
52	0x3d96c9bb	0.07362696
53	0xbdb20102	-0.086915985
54	0x3d122871	0.0356831
55	0x3d62d21a	0.05537615
56	0x3d8634fa	0.06553073
57	0xbd890b87	-0.06691652
58	0xbd3b7e67	-0.045774844
59	0x3d9b95f1	0.075969584
60	0xbd8501bb	-0.06494471
61	0x3d0d52c2	0.034502752
62	0xbd570784	-0.0524974
63	0x3d304532	0.04303474
64	0x3c3c5124	0.011493955
65	0xbd82182d	-0.063522674
66	0x3d1af60f	0.037832316
67	0x3d582f53	0.052779507
68	0xbd98b068	-0.07455522
69	0xbd569e09	-0.052396808
70	0x3d870cbc	0.06594226
71	0xbd12b2a8	-0.03581491
72	0xbca50e60	-0.020148456
73	0xbda79207	-0.081821494
74	0x3d55f2c8	0.052233487
75	0x3d5040bd	0.05084299
76	0xbd994051	-0.074829705
77	0xbd9d6a87	-0.07686334
78	0x3b0a34be	0.0021088566
79	0xbd5bcb5c	-0.053660735
80	0x3aa390bf	0.0012479051
81	0xbcf1ff76	-0.029540759
82	0xbd1480e2	-0.036255725
83	0x3d49a2f8	0.049227685
84	0xbccb852f	-0.02484378
85	0x3d8ec3aa	0.06970914
86	0xbd2c7391	-0.0421024
87	0x3d9392a5	0.072057046
88	0x3d9191da	0.07107897
89	0xbdab93bb	-0.08377787
90	0xbd95ce74	-0.073147684
91	0x3d8782df	0.066167586
92	0xbcc3d253	-0.023904001
93	0xbc30e8c5	-0.010797684
94	0x3b85cae8	0.004083026
95	0x3d2b360e	0.041799597
96	0xbdab5fa8	-0.08367854
97	0xbd9c1a36	-0.07622187
98	0x3d62daff	0.055384632
99	0xbd712128	-0.05886951
100	0x3d01d570	0.03169769
101	0x3da442c6	0.080205485
102	0xbd4839d0	-0.04888326
103	0x3d15a9eb	0.036539
104	0xbd09edf0	-0.03367418
105	0xbd3f0a21	-0.04664052
106	0xbd060a61	-0.03272474
107	0x3da369d6	0.07979171
108	0x3daba9c6	0.08381991
109	0xbd99a125	-0.07501439
110	0xbd8d5356	-0.06900661
111	0x3c43a7db	0.011941875
112	0xbd426cf3	-0.047467183
113	0x3d85d137	0.06534045
114	0x3d6cab1d	0.057780374
115	0x3d64e2d9	0.0558804
116	0x3d886b26	0.06661062
117	0xbd06619f	-0.032807942
118	0x3d5f1bbf	0.05446982
119	0xbbb4dc2d	-0.005519411
120	0x3ac8c62e	0.0015317851
121	0x3d568002	0.05236817
122	0xbd305595	-0.043050367
123	0x3ccfc80f	0.02536395
124	0xbba15940	-0.0049239695
125	0x3ce73f10	0.028228313
126	0x3d95256e	0.0728253
127	0xbd55564e	-0.05208426
